…
err = 3 /opt/blizzard/buildserver/data.noindex/repositories/sc2/branches/SC2.4.6-Publish/Game/Contrib/macteam/libs/ClampCursor/Contrib/mach_override/mach_override.c:244
err = 3 /opt/blizzard/buildserver/data.noindex/repositories/sc2/branches/SC2.4.6-Publish/Game/Contrib/macteam/libs/ClampCursor/Contrib/mach_override/mach_override.c:258
err = 3 /opt/blizzard/buildserver/data.noindex/repositories/sc2/branches/SC2.4.6-Publish/Game/Contrib/macteam/libs/ClampCursor/Contrib/mach_override/mach_override.c:263
NSWindowEdgeResizing is off!
_________________________________________________________________
Layer (type)                 Output Shape              Param #
=================================================================
dense_1 (Dense)              (None, 64)                192
_________________________________________________________________
dense_2 (Dense)              (None, 64)                4160
_________________________________________________________________
dense_3 (Dense)              (None, 64)                4160
_________________________________________________________________
dense_4 (Dense)              (None, 4)                 260
_________________________________________________________________
dense_5 (Dense)              (None, 4)                 20
=================================================================
Total params: 8,792
Trainable params: 8,792
Non-trainable params: 0
_________________________________________________________________
_________________________________________________________________
Layer (type)                 Output Shape              Param #
=================================================================
dense_6 (Dense)              (None, 64)                192
_________________________________________________________________
dense_7 (Dense)              (None, 64)                4160
_________________________________________________________________
dense_8 (Dense)              (None, 30)                1950
_________________________________________________________________
dense_9 (Dense)              (None, 1)                 31
=================================================================
Total params: 6,333
Trainable params: 6,333
Non-trainable params: 0
_________________________________________________________________
-4.000000000000002 0
-0.8999999999999999 1
-9.89999999999998 2
-20.900000000000013 3
-15.79999999999996 4
0 5
-20.900000000000013 6
-4.5 7
-20.900000000000013 8
-20.900000000000013 9
-20.900000000000013 10
…
