…
err = 3 /opt/blizzard/buildserver/data.noindex/repositories/sc2/branches/SC2.4.6-Publish/Game/Contrib/macteam/libs/ClampCursor/Contrib/mach_override/mach_override.c:263
NSWindowEdgeResizing is off!
2018-10-13 18:18:05.893 Python[3685:295006] ApplePersistenceIgnoreState: Existing state will not be touched. New state will be written to (null)
E1013 18:18:07.118568 140735949484928 renderer_human.py:205] Failed to get the resolution from xrandr.
_________________________________________________________________
Layer (type)                 Output Shape              Param #
=================================================================
dense_1 (Dense)              (None, 64)                192
_________________________________________________________________
dense_2 (Dense)              (None, 64)                4160
_________________________________________________________________
dense_3 (Dense)              (None, 64)                4160
_________________________________________________________________
dense_4 (Dense)              (None, 4)                 260
_________________________________________________________________
dense_5 (Dense)              (None, 4)                 20
=================================================================
Total params: 8,792
Trainable params: 8,792
Non-trainable params: 0
_________________________________________________________________
_________________________________________________________________
Layer (type)                 Output Shape              Param #
=================================================================
dense_6 (Dense)              (None, 64)                192
_________________________________________________________________
dense_7 (Dense)              (None, 64)                4160
_________________________________________________________________
dense_8 (Dense)              (None, 30)                1950
_________________________________________________________________
dense_9 (Dense)              (None, 1)                 31
=================================================================
Total params: 6,333
Trainable params: 6,333
Non-trainable params: 0
_________________________________________________________________
_________________________________________________________________
Layer (type)                 Output Shape              Param #
=================================================================
dense_10 (Dense)             (None, 64)                192
_________________________________________________________________
dense_11 (Dense)             (None, 64)                4160
_________________________________________________________________
dense_12 (Dense)             (None, 64)                4160
_________________________________________________________________
dense_13 (Dense)             (None, 4)                 260
_________________________________________________________________
dense_14 (Dense)             (None, 4)                 20
=================================================================
Total params: 8,792
Trainable params: 8,792
Non-trainable params: 0
_________________________________________________________________
_________________________________________________________________
Layer (type)                 Output Shape              Param #
=================================================================
dense_15 (Dense)             (None, 64)                192
_________________________________________________________________
dense_16 (Dense)             (None, 64)                4160
_________________________________________________________________
dense_17 (Dense)             (None, 30)                1950
_________________________________________________________________
dense_18 (Dense)             (None, 1)                 31
=================================================================
Total params: 6,333
Trainable params: 6,333
Non-trainable params: 0
_________________________________________________________________
-3.400000050663948 0
-5.100000075995922 1
-19.400000289082527 2
-0.800000011920929 3
-3.500000052154064 4
-2.400000035762787 5
-7.300000108778477 6
-20.900000296533108 7
-20.900000296533108 8
-20.900000296533108 9
…
